…
2019-01-08 03:37:41.538744: I tensorflow/core/common_runtime/gpu/gpu_device.cc:1001] 0:   N
2019-01-08 03:37:41.539046: I tensorflow/core/common_runtime/gpu/gpu_device.cc:1115] Created TensorFlow device (/job:localhost/replica:0/task:0/device:GPU:0 with 15129 MB memory) -> physical GPU (device: 0, name: Tesla P100-PCIE-16GB, pci bus id: 0000:18:00.0, compute capability: 6.0)
2019-01-08 03:37:43,446 __main__     INFO     Model Description
_________________________________________________________________
Layer (type)                 Output Shape              Param #
=================================================================
input_1 (InputLayer)         (None, 32, 32, 3)         0
_________________________________________________________________
conv2d_1 (Conv2D)            (None, 32, 32, 24)        1824
_________________________________________________________________
activation_1 (Activation)    (None, 32, 32, 24)        0
_________________________________________________________________
batch_normalization_1 (Batch (None, 32, 32, 24)        96
_________________________________________________________________
conv2d_2 (Conv2D)            (None, 32, 32, 64)        1600
_________________________________________________________________
activation_2 (Activation)    (None, 32, 32, 64)        0
_________________________________________________________________
batch_normalization_2 (Batch (None, 32, 32, 64)        256
_________________________________________________________________
conv2d_3 (Conv2D)            (None, 32, 32, 48)        76848
_________________________________________________________________
activation_3 (Activation)    (None, 32, 32, 48)        0
_________________________________________________________________
batch_normalization_3 (Batch (None, 32, 32, 48)        192
_________________________________________________________________
conv2d_4 (Conv2D)            (None, 32, 32, 24)        56472
_________________________________________________________________
activation_4 (Activation)    (None, 32, 32, 24)        0
_________________________________________________________________
batch_normalization_4 (Batch (None, 32, 32, 24)        96
_________________________________________________________________
conv2d_5 (Conv2D)            (None, 32, 32, 36)        21636
_________________________________________________________________
activation_5 (Activation)    (None, 32, 32, 36)        0
_________________________________________________________________
batch_normalization_5 (Batch (None, 32, 32, 36)        144
_________________________________________________________________
conv2d_6 (Conv2D)            (None, 32, 32, 24)        888
_________________________________________________________________
activation_6 (Activation)    (None, 32, 32, 24)        0
_________________________________________________________________
batch_normalization_6 (Batch (None, 32, 32, 24)        96
_________________________________________________________________
conv2d_7 (Conv2D)            (None, 32, 32, 48)        28848
_________________________________________________________________
activation_7 (Activation)    (None, 32, 32, 48)        0
_________________________________________________________________
batch_normalization_7 (Batch (None, 32, 32, 48)        192
_________________________________________________________________
conv2d_8 (Conv2D)            (None, 32, 32, 24)        10392
_________________________________________________________________
activation_8 (Activation)    (None, 32, 32, 24)        0
_________________________________________________________________
batch_normalization_8 (Batch (None, 32, 32, 24)        96
_________________________________________________________________
conv2d_9 (Conv2D)            (None, 32, 32, 24)        28248
_________________________________________________________________
activation_9 (Activation)    (None, 32, 32, 24)        0
_________________________________________________________________
batch_normalization_9 (Batch (None, 32, 32, 24)        96
_________________________________________________________________
conv2d_10 (Conv2D)           (None, 32, 32, 36)        7812
_________________________________________________________________
activation_10 (Activation)   (None, 32, 32, 36)        0
_________________________________________________________________
batch_normalization_10 (Batc (None, 32, 32, 36)        144
_________________________________________________________________
flatten_1 (Flatten)          (None, 36864)             0
_________________________________________________________________
dense_1 (Dense)              (None, 10)                368650
=================================================================
Total params: 604,626
Trainable params: 603,922
Non-trainable params: 704
